data/models/ddqn/single.pth (torch, 808123 bytes, 12 tensors)

distance_module.fc1.weight f4 [256, 1]
1.1273618 -0.015398604 0.8261364 -0.15417391 -0.15205236 -0.9165099 -1.0314353 -0.9938683
-0.9942791 -0.9706037 -0.4866078 1.075737 -0.84543544 0.94468594 -0.31485742 0.24084426
1.0311861 0.63024235 1.0214146 0.6391871 -0.0133739645 0.44212994 0.012993567 1.1320794
-0.028056728 0.7543847 -0.022529384 0.750119 -0.029454593 -1.1031492 -0.16240807 -0.7554546
1.0478642 -0.8525755 -0.8251339 -0.89995 0.94039375 -0.2563325 -0.77461296 0.87527364
-1.0944883 -0.5784121 -0.26953584 -0.8070035 0.621494 -0.58758605 0.94878983 -0.945959
-1.0593997 0.9248713 -0.016249746 0.9706989 -0.039906133 -0.6377171 0.76857865 -0.9517465
1.0493091 0.13323715 -0.81946474 -1.0200051 -0.85881174 -0.97259027 -0.01312005 0.33475572
0.7928667 0.7585768 0.80144536 0.28248814 -0.72877425 -0.97883797 -1.0051146 1.0645245
-0.04013326 -0.568097 0.4573284 -0.021319503 0.39893898 0.024866158 0.86514986 -0.5258135
0.99471635 -1.0842334 0.86769205 -0.030915145 -0.4078006 1.1123197 -0.041997626 0.6063307
1.1515453 1.0630388 -0.91811585 -0.5519891 -0.6137004 1.0520016 -0.42864347 -0.6311995
0.49496645 -1.0887995 -0.6341016 1.1431772 0.74463975 -0.40756455 1.0521919 0.23838843
-0.55106306 1.102674 -1.1635766 0.64094794 0.15732925 -1.0789098 0.8264198 0.842865
1.0593503 0.6753827 0.21544097 1.010615 -1.0675347 1.1635789 -1.1463228 0.020079846
-0.5602494 -0.89085543 -0.028120935 0.029293487 0.039963167 0.55743515 -0.9803039 -0.0340372
-0.01233281 -1.1407944 1.0703021 -0.012548862 1.156289 -0.7093057 1.0589638 -0.5793908
-0.9927587 0.762623 -0.014371992 0.6796566 -0.87654424 0.7543286 0.57627636 0.7034861
1.1168157 0.4704399 -0.020668548 -0.013236028 0.9966573 -0.50845486 -0.9636467 -0.5911244
1.0599298 -1.0655031 -0.028331706 0.011416204 -1.0106124 0.64049363 -0.5576174 -1.150182
-0.98159206 -1.0054324 1.0001997 -1.134959 -0.013264905 -0.018307678 -0.5872997 -1.1416007
-0.021926261 -0.031960618 0.14185077 -0.029750444 -0.03239031 -0.49968165 0.13480486 -0.46158308
-0.7541909 -1.1473337 -0.8674882 -0.03107835 -0.029245198 1.126154 -0.3433546 -1.0083632
-0.54428756 0.015800714 1.0144254 0.14171515 -0.77805394 0.8633473 0.7340944 -0.92360675
1.0837821 0.5415158 0.6762964 -0.018397307 -1.147787 1.0459001 1.1416976 -0.5939392
-0.64667803 -1.0691465 -0.90289485 -1.0054957 0.8611404 0.873216 -0.64429784 -0.5958292
-1.0239948 0.8358486 -0.14177403 -0.034716222 -1.1454165 -0.92575556 0.028709477 -1.0864463
0.9276642 -0.014199937 -0.014348094 -0.020701082 0.2724889 -0.032156505 0.03898787 0.81628174
-0.13441344 0.041938208 -0.4220123 0.7159819 -0.026749713 0.5228965 -0.13206235 0.929706
-1.0090383 0.68935883 -1.142046 0.65831494 -0.55657035 -0.4893797 1.0460443 -1.0015527
-0.12803899 -1.14479 -1.1438419 -0.9455813 -0.023396108 -0.02464791 1.0629039 -0.96935964
-0.69734836 -0.033518557 1.1478041 1.0709668 0.028801208 -1.0516866 -0.39956763 -0.43347177
00000000: 644d 903f 6d4a 7cbc ad7d 533f c4df 1dbe
00000010: 9db3 1bbe 65a0 6abf 1206 84bf 276e 7ebf
00000020: 1389 7ebf 7c79 78bf a824 f9be c0b1 893f
00000030: 756e 58bf f0d6 713f fe34 a1be e19f 763e
00000040: e8fd 833f 9057 213f b7bd 823f c4a1 233f
00000050: 791e 5bbc db5e e23e f8e2 543c fae7 903f
00000060: 39d7 e5bc 5b1f 413f 8b8f b8bc cc07 403f
00000070: c24a f1bc fe33 8dbf 4d4e 26be 7965 41bf
00000080: 6a20 863f 6342 5abf fa3b 53bf 2063 66bf
00000090: a5bd 703f 033e 83be 094d 46bf ef11 603f
000000a0: 3118 8cbf d112 14bf 9a00 8abe c897 4ebf
000000b0: 3b1a 1f3f 0a6c 16bf e4e3 723f 5e2a 72bf
000000c0: 699a 87bf 5ec4 6c3f 301e 85bc b97f 783f
000000d0: 9d74 23bd 6e41 23bf 92c1 443f a9a5 73bf
000000e0: c34f 863f 526f 083e 71c8 51bf 878f 82bf
000000f0: 16db 5bbf adfb 78bf 7af5 56bc 1a65 ab3e
00000100: 50f9 4a3f 1732 423f 862b 4d3f 49a2 903e
00000110: f390 3abf 2095 7abf 98a7 80bf 5742 883f
00000120: c662 24bd ce6e 11bf f326 ea3e 3da6 aebc
00000130: bb41 cc3e 1db4 cb3c 767a 5d3f b79b 06bf
00000140: bba5 7e3f 29c8 8abf 1121 5e3f c241 fdbc
00000150: 3ecb d0be 7e60 8e3f b405 2cbd 7d38 1b3f
00000160: d665 933f a811 883f a409 6bbf 284f 0dbf
00000170: 781b 1dbf fda7 863f 2877 dbbe 4a96 21bf
00000180: 3e6c fd3e c85d 8bbf 7c54 22bf a153 923f
00000190: b6a0 3e3f 4dac d0be 39ae 863f 191c 743e
000001a0: 7812 0dbf 6c24 8d3f 14f0 94bf 2a15 243f
000001b0: eb1a 213e b719 8abf 3f90 533f 00c6 573f
000001c0: ca98 873f e1e5 2c3f 8f9c 5c3e d55b 813f
000001d0: faa4 88bf 27f0 943f b5ba 92bf 7d7e a43c
000001e0: 816c 0fbf 1a0f 64bf e05d e6bc e5f8 ef3c
000001f0: 6bb0 233d 12b4 0e3f 32f5 7abf 976a 0bbd
00000200: 8e0f 4abc 8d05 92bf a9ff 883f be99 4dbc
00000210: 4701 943f 0f95 35bf 208c 873f f552 14bf
00000220: 6f25 7ebf 433b 433f 8178 6bbc fafd 2d3f
00000230: 3465 60bf ae1b 413f d986 133f aa17 343f
00000240: d1f3 8e3f 80dd f03e 1651 a9bc eddb 58bc
00000250: ef24 7f3f 192a 02bf 8db1 76bf ee53 17bf
00000260: c8ab 873f 6862 88bf e517 e8bc 080b 3b3c
00000270: bf5b 81bf 64f7 233f 04c0 0ebf 2a39 93bf
00000280: 9e49 7bbf 02b2 80bf 8b06 803f 5646 91bf
00000290: 0b55 59bc fcf9 95bc 4659 16bf f91f 92bf
000002a0: b49e b3bc 23e9 02bd 5441 113e 34b7 f3bc
000002b0: b4ab 04bd 46d6 ffbe 490a 0a3e 9e54 ecbe
000002c0: a812 41bf d5db 92bf b513 5ebf 0698 febc
000002d0: a093 efbc d025 903f 2dcc afbe 0c12 81bf
000002e0: 6e56 0bbf 8070 813c b1d8 813f c71d 113e
000002f0: 8b2e 47bf 5404 5d3f 9ced 3b3f 7e71 6cbf
00000300: 5fb9 8a3f c8a0 0a3f c321 2d3f f3b5 96bc
00000310: afea 92bf 0ee0 853f 2623 923f 660c 18bf
00000320: b18c 25bf cbd9 88bf 1e24 67bf 15b4 80bf
00000330: b273 5c3f 158b 5f3f b4f0 24bf 4388 18bf
00000340: 4312 83bf 2dfa 553f 362d 11be 9932 0ebd
00000350: 029d 92bf 51fe 6cbf 2330 eb3c ac10 8bbf
00000360: 677b 6d3f daa6 68bc 4514 6bbc 5195 a9bc
00000370: aa83 8b3e 8ab6 03bd bfb1 1f3d d7f7 503f
00000380: ada3 09be 66c7 2b3d ff11 d8be 974a 373f
00000390: 3722 dbbc 8cdc 053f 5a3b 07be 3601 6e3f
000003a0: 2b28 81bf d279 303f 902e 92bf 5487 283f
000003b0: 657b 0ebf fa8f fabe c8e4 853f e132 80bf
000003c0: a71c 03be 7b88 92bf 6969 92bf 9e11 72bf
000003d0: 32a9 bfbc 6aea c9bc 3c0d 883f f427 78bf
000003e0: 6c85 32bf c14a 09bd 3feb 923f 7115 893f
000003f0: 83f0 eb3c ab9d 86bf 2194 ccbe 03f0 ddbe

distance_module.fc1.bias f4 [256]
-0.5814531 0.6249468 0.13959935 0.22208571 0.15165892 -0.095537096 -0.69468 -0.32472768
-0.39355502 0.11759653 -0.47497165 0.67191106 0.7305471 -0.45018262 -0.7172836 0.45778653
0.5778347 0.110359155 -0.96901417 -0.5002845 0.83496743 1.3379699 -0.32840437 -0.50643265
-1.3016986 -0.16572657 0.1145695 -0.610127 -0.86866015 0.43437675 -0.06568621 0.8749596
-0.2971778 -0.13520889 -0.32880327 -0.76207066 -0.35402885 -1.4693122 0.51058775 0.75613624
-0.4056531 0.3792405 -1.2571993 0.5997174 2.2557573 0.18838495 -0.3843115 -0.6397708
0.2446658 -0.5380914 0.48250493 0.5774735 0.52901053 -0.77103275 -0.68884486 0.13423176
0.0061474475 0.944677 -0.55453175 -0.76266694 -0.3329305 -0.085593194 0.88299835 2.273679
0.9318487 0.40769824 0.17734662 -0.08913238 -0.35232395 0.5945273 -0.14582302 -0.6397835
0.7179843 0.4012284 0.7620066 0.17070445 0.6388593 -0.59844315 0.58617157 -1.11969
0.2314289 0.85829777 -0.03114252 -0.5073963 -0.089911856 0.06789451 -0.37221846 -0.20996867
-0.23187697 -0.7856567 -0.9747214 0.118795924 0.34318155 -0.42785555 -0.175286 0.7565503
0.012448128 0.177772 0.78567123 0.96268076 1.8488837 -0.8730116 1.1494502 0.8712149
-1.0541208 0.31916246 0.8272295 -0.3248176 -0.24943307 -0.52749574 0.65073687 0.7058437
0.3439722 -0.06669218 0.3674201 -0.4792539 0.9036072 -0.66768944 -0.17942585 1.4517063
0.11931465 0.16972971 -0.16157413 1.0531447 -0.4364615 1.9722915 -0.62655354 -0.23553689
1.0245848 0.8390239 0.078884944 0.98900026 0.19483395 -0.20244995 0.57969755 -1.0273271
-0.1675659 0.21630336 0.6819393 0.25531164 0.2685764 1.3954971 0.2670386 0.90083736
-0.8494335 0.862226 -1.0965832 0.8649121 0.5694177 0.593053 -1.0685785 -0.16606592
-0.38553172 0.061493125 -1.258122 -0.32595545 -0.1771292 -0.17716075 0.008207071 0.40167624
0.7505461 0.8295034 0.17901376 0.16966666 1.0376945 0.4522869 0.44222373 -0.53201985
0.14148879 -0.39923114 1.016701 -0.8877534 -0.14878473 -0.5836167 0.78634924 -0.7036232
-0.6733971 -0.7507431 -0.60819584 -0.51541376 -0.9884734 0.3168058 -0.8474497 -0.8528706
0.2675336 -0.22215047 -0.4370235 -0.41682723 -0.98249847 0.16234227 0.5291418 0.22669773
-0.72747415 0.022774676 0.9371625 0.3123124 0.5972016 -0.77278006 0.15956658 -1.0553172
0.7748277 0.4033898 0.2324169 -0.13803141 0.8666153 -0.010233505 -0.373787 -1.777371
-0.85770243 -0.037334494 -0.8935846 -0.17497829 0.7980021 -0.56616 1.2192019 0.5813367
-0.7552226 0.7104615 0.74232006 0.20356269 0.3175882 -0.40550485 -0.30914244 -0.6532333
-0.451576 -0.6385082 -0.37446144 0.8258967 -1.1961601 -0.5190913 -0.95944405 -0.6968576
0.14343596 0.17969301 0.48470563 0.17335929 0.14758359 -0.6723367 0.7086301 -1.054146
-0.73721206 0.29499766 -0.9087659 0.04580745 0.07988499 0.08346912 -0.50042236 -0.6725331
0.18034145 -0.070998654 0.83793175 0.31096613 1.0012211 0.08283262 -0.42117903 -0.9551814
00000000: 1cda 14bf 83fc 1f3f 22f3 0e3e 706a 633e
00000010: 7a4c 1b3e f4a8 c3bd 8cd6 31bf b542 a6be
00000020: 0b80 c9be 73d6 f03d 7c2f f3be 5d02 2c3f
00000030: 2205 3b3f 567e e6be e69f 37bf ff62 ea3e
00000040: faec 133f fb03 e23d 5011 78bf a512 00bf
00000050: 6dc0 553f 9942 ab3f 9e24 a8be 92a5 01bf
00000060: 0f9e a6bf 3ab4 29be 6aa3 ea3d 4831 1cbf
00000070: 8360 5ebf a166 de3e 7e86 86bd 5afd 5f3f
00000080: b027 98be 3374 0abe e758 a8be 1017 43bf
00000090: 4543 b5be 6c12 bcbf e1b5 023f 2592 413f
000000a0: c3b1 cfbe d02b c23e e8eb a0bf 1487 193f
000000b0: 545e 1040 fce7 403e 7ac4 c4be 05c8 23bf
000000c0: ac89 7a3e 5cc0 09bf e30a f73e 4ed5 133f
000000d0: 3c6d 073f 6762 45bf 2358 30bf 0d74 093e
000000e0: 8770 c93b 5ad6 713f cbf5 0dbf 243e 43bf
000000f0: de75 aabe 7c4b afbd 2e0c 623f f583 1140
00000100: a38d 6e3f d3bd d03e 5a9a 353e 0a8b b6bd
00000110: ce63 b4be f132 183f a152 15be dac8 23bf
00000120: d2cd 373f cf6d cd3e dd12 433f 26cd 2e3e
00000130: 488c 233f 9233 19bf 570f 163f 0052 8fbf
00000140: b3fb 6c3e 67b9 5b3f 991e ffbc b9e4 01bf
00000150: b523 b8bd 470c 8b3d 6b93 bebe 0702 57be
00000160: 2871 6dbe cc20 49bf 5787 79bf 474b f33d
00000170: 7eb5 af3e e20f dbbe 2c7e 33be 48ad 413f
00000180: 3cf3 4b3c dd09 363e c021 493f 3f72 763f
00000190: 39a8 ec3f b07d 5fbf 2f21 933f f107 5f3f
000001a0: 6eed 86bf 4369 a33e 50c5 533f 7e4e a6be
000001b0: 626b 7fbe f609 07bf b196 263f 2cb2 343f
000001c0: 201d b03e e995 88bd 7d1e bc3e c460 f5be
000001d0: cd52 673f b2ed 2abf 69bb 37be 83d1 b93f
000001e0: 3d5b f43d a0cd 2d3e b073 25be 72cd 863f
000001f0: e277 dfbe 0c74 fc3f d065 20bf 9530 71be
00000200: 9825 833f 45ca 563f 6e8e a13d 1f2f 7d3f
00000210: 8d82 473e 0a4f 4fbe 0f67 143f 747f 83bf
00000220: 6596 2bbe a17e 5d3e 9393 2e3f 35b8 823e
00000230: d982 893e a69f b23f 49b9 883e 479d 663f
00000240: 7974 59bf d8ba 5c3f d75c 8cbf e16a 5d3f
00000250: 5cc5 113f 52d2 173f 2ec7 88bf 2f0d 2abe
00000260: 6a64 c5be 37e0 7b3d 240a a1bf a2e3 a6be
00000270: 5b61 35be a169 35be f376 063c 82a8 cd3e
00000280: ca23 403f 565a 543f 624f 373e 19bd 2d3e
00000290: 2cd3 843f 2692 e73e 266b e23e 7432 08bf
000002a0: 70e2 103e 0668 ccbe 4223 823f cf43 63bf
000002b0: 065b 18be e767 15bf 2f4e 493f a620 34bf
000002c0: c163 2cbf b330 40bf b9b2 1bbf 28f2 03bf
000002d0: 980c 7dbf 5f34 a23e 77f2 58bf ba55 5abf
000002e0: 2afa 883e 6a7b 63be 8bc1 dfbe 616a d5be
000002f0: 0585 7bbf 0d3d 263e d675 073f 7323 683e
00000300: bf3b 3abf f591 ba3c e2e9 6f3f 69e7 9f3e
00000310: 34e2 183f ead4 45bf 6c65 233e a214 87bf
00000320: 1c5b 463f 1c89 ce3e b2fe 6d3e 1b58 0dbe
00000330: 80da 5d3f 6eaa 27bc 0261 bfbe e580 e3bf
00000340: 6392 5bbf 0eec 18bd f6c1 64bf 822d 33be
00000350: de49 4c3f ddef 10bf cf0e 9c3f 7bd2 143f
00000360: 4556 41bf cee0 353f b008 3e3f bd72 503e
00000370: ec9a a23e 559e cfbe eb47 9ebe 4c3a 27bf
00000380: f834 e7be 4675 23bf 69b9 bfbe f76d 533f
00000390: c61b 99bf 2be3 04bf 209e 75bf 4265 32bf
000003a0: e0e0 123e 7201 383e 562b f83e 1985 313e
000003b0: 2720 173e 421e 2cbf c868 353f 42ee 86bf
000003c0: eeb9 3cbf ef09 973e e2a4 68bf 98a0 3b3d
000003d0: be9a a33d dcf1 aa3d ae1b 00bf 212b 2cbf
000003e0: 6eab 383e be67 91bd b282 563f f436 9f3e
000003f0: 0328 803f 26a4 a93d c7a4 d7be c586 74bf

distance_module.fc2.weight f4 [1, 256]
-0.11172785 0.0475291 -0.009093493 0.05137968 0.05030565 0.07844838 0.045605704 0.02322277
0.09571781 0.048636686 -0.05649844 -0.015952062 0.10090047 -0.07572203 0.07307435 -0.04413344
-0.031614833 -0.043074936 -0.10254806 -0.10353979 0.27960375 -0.0013691861 -0.0576951 -0.0542851
-0.055185378 -0.079101466 0.24363849 -0.04858832 -0.054096937 0.046474095 0.04587648 0.04896358
-0.0806627 0.07775505 0.10531123 0.054692265 -0.05546106 0.012691933 0.038590997 -0.02174396
0.065760046 -0.0685071 0.015133837 0.10367642 0.0014804237 -0.04603798 -0.08178361 0.02937843
0.0496082 -0.09798375 0.118139096 -0.11430248 -0.036869306 0.05573519 -0.10351104 0.0387245
-0.06320421 -0.035208564 0.105810694 0.10956108 0.087986216 0.054458797 0.233902 0.0066183135
-0.031481024 -0.09113147 -0.05147642 -0.034000285 0.08774442 0.08714216 0.09381641 -0.027081171
-0.007834982 -0.026064035 -0.09099934 0.24801725 -0.042976752 -0.04243592 -0.05028986 -0.004793749
-0.044785064 0.124227084 -0.095984906 -0.039516874 0.050154623 -0.016575122 0.072907485 0.015249036
-0.0085832 -0.023576768 0.048783306 -0.06235774 0.03979437 -0.020342099 0.03343603 -0.06654019
-0.07180429 0.06505695 -0.07318727 -0.06708083 -0.0011517097 -0.05292738 -0.008156452 -0.05546069
-0.019115638 -0.0073476904 0.05464779 -0.060212836 -0.073623694 0.10576233 -0.10167598 -0.108303316
-0.04175994 -0.10850527 -0.073095016 -0.070644066 0.04742262 -0.067221366 0.02930027 0.0072530983
0.05515757 0.10867869 0.21521124 0.272264 0.19033948 -0.0020532573 0.017004995 -0.06718428
0.35787374 0.10376161 -0.04369491 0.24891037 -0.09441888 0.06258503 -0.06699044 -0.002513926
0.041329887 -0.019349009 0.25386614 -0.09827693 0.108678415 -0.00055031356 0.007429205 -0.08133464
-0.0685981 0.011542183 0.0032288167 0.21518072 -0.015949672 0.07411161 0.025515651 -0.0049605407
-0.053793866 0.063976124 -0.07086878 -0.03357589 0.05617534 0.008864086 -0.058222838 0.06957985
0.069270894 0.054972894 -0.10680402 0.11927937 0.030360263 0.03445358 -0.0699657 0.081690006
0.25602883 -0.07063555 -0.026367327 -0.1057632 -0.0021592823 -0.009148199 -0.08124466 -0.01525766
0.015279044 0.037868876 0.029538954 -0.05124106 -0.080377735 -0.046166014 0.031340417 0.03492622
0.053416755 -0.13864519 -0.037399713 -0.022215202 0.073497914 -0.07069684 0.006321062 0.082372285
-0.031067668 0.014124909 -0.039247982 0.20978893 0.09849815 -0.046809748 -0.07766482 0.047993027
-0.021377577 0.03635398 0.09369042 0.11938513 -0.11312324 -0.05598826 0.027995324 0.011100167
0.036089893 -0.073621504 0.028338626 -0.08557251 0.05470386 0.11766842 0.2187037 0.037292223
-0.03216445 0.21624199 0.06398785 0.21944435 -0.0426241 -0.11462734 0.2694778 -0.037936952
0.03213621 0.13714574 0.08480309 -0.05565825 -0.0036755037 -0.015354523 0.059702378 -0.031248009
0.07790928 -0.09475334 0.057974577 -0.086759195 -0.049555738 -0.05041032 -0.08012338 0.04797328
0.031302046 0.030115953 0.040230677 0.024285065 0.19952418 0.050896753 -0.043685485 0.093312845
0.057761684 -0.016010534 -0.050482627 -0.028896457 0.013053326 0.09482033 0.055130947 -0.050051447
00000000: 92d1 e4bd e0ad 423d e0fc 14bc 8073 523d
00000010: 4c0d 4e3d 8ba9 a03d 0ccd 3a3d ae3d be3c
00000020: b307 c43d 4337 473d e96a 67bd e6ad 82bc
00000030: e8a4 ce3d 2714 9bbd 01a8 953d 44c5 34bd
00000040: 8e7e 01bd 586f 30bd b804 d2bd ab0c d4bd
00000050: 3928 8f3e 4376 b3ba b251 6cbd 0e5a 5ebd
00000060: 100a 62bd f3ff a1bd 5e7c 793e 8c04 47bd
00000070: c094 5dbd 9f5b 3e3d fae8 3b3d 098e 483d
00000080: 7c32 a5bd 0a3e 9f3d 6aad d73d ff04 603d
00000090: 232b 63bd d3f1 4f3c 9811 1e3d 6420 b2bc
000000a0: 34ad 863d 734d 8cbd eaf3 773c 4e54 d43d
000000b0: c70a c23a 5292 3cbd 2a7e a7bd 09ab f03c
000000c0: f831 4b3d b4ab c8bd e9f2 f13d 6b17 eabd
000000d0: 4504 17bd 954a 643d 99fd d3bd 959d 1e3d
000000e0: 3571 81bd db36 10bd 47b3 d83d 8f61 e03d
000000f0: 1e32 b43d 3010 5f3d 0284 6f3e 70de d83b
00000100: 3ff2 00bd 23a3 babd f0d8 52bd e243 0bbd
00000110: 59b3 b33d 9777 b23d d122 c03d 55d9 ddbc
00000120: 4c5e 00bc 3e84 d5bc dd5d babd 3cf8 7d3e
00000130: 6408 30bd 4ad1 2dbd befc 4dbd e214 9dbb
00000140: 8b70 37bd c56a fe3d bc93 c4bd 72dc 21bd
00000150: ef6e 4d3d 8dc8 87bc 8550 953d 18d7 793c
00000160: 8da0 0cbc 1124 c1bc 01d1 473d d46a 7fbd
00000170: 6cff 223d 79a4 a6bc 38f4 083d 3946 88bd
00000180: 210e 93bd 943c 853d 35e3 95bd ad61 89bd
00000190: f7f4 96ba 61ca 58bd a4a2 05bc c02a 63bd
000001a0: 6698 9cbc e5c4 f0bb 5cd6 5f3d bca1 76bd
000001b0: 05c8 96bd ec99 d83d 7f3b d0bd 21ce ddbd
000001c0: 790c 2bbd 0338 debd d7b2 95bd d6ad 90bd
000001d0: 393e 423d 5bab 89bd 1f07 f03c 66ab ed3b
000001e0: e7ec 613d ef92 de3d 5660 5c3e 3066 8b3e
000001f0: 5ae8 423e f18f 06bb 0f4e 8b3c e997 89bd
00000200: 3a3b b73e f880 d43d 6ff9 32bd 5ce2 7e3e
00000210: b05e c1bd 952c 803d 4932 89bd aec0 24bb
00000220: 8749 293d d081 9ebc befa 813e 6a45 c9bd
00000230: ca92 de3d eb42 10ba b070 f33b c792 a6bd
00000240: 297d 8cbd 6d1b 3d3c 8e9a 533b 5658 5c3e
00000250: e3a8 82bc d4c7 973d 3306 d13c 088c a2bb
00000260: f556 5cbd ea05 833d a723 91bd df86 09bd
00000270: 1d18 663d ac3a 113c 127b 6ebd e17f 8e3d
00000280: e6dd 8d3d 422b 613d 11bc dabd be48 f43d
00000290: 16b6 f83c 321f 0d3d 2d4a 8fbd 174d a73d
000002a0: 3616 833e 5fa9 90bd 4b00 d8bc 609a d8bd
000002b0: bf82 0dbb 54e2 15bc 9a63 a6bd 44fb 79bc
000002c0: f554 7a3c 651c 1b3d adfb f13c 25e2 51bd
000002d0: 159d a4bd 9318 3dbd cf5e 003d cc0e 0f3d
000002e0: 87cb 5a3d 01f9 0dbe 7130 19bd a8fc b5bc
000002f0: 1386 963d 81c9 90bd e920 cf3b cdb2 a83d
00000300: 9f81 febc 2a6c 673c 7ec2 20bd e9d2 563e
00000310: 66b9 c93d 94bb 3fbd bc0e 9fbd 5694 443d
00000320: 0720 afbc e9e7 143d c3e0 bf3d 3180 f43d
00000330: 28ad e7bd f253 65bd 7356 e53c 7add 353c
00000340: ffd2 133d dfc6 96bd 6826 e83c a440 afbd
00000350: 2811 603d 24fc f03d ddf3 5f3e bbbf 183d
00000360: dfbe 03bd 8a6e 5d3e 100c 833d 05b6 603e
00000370: 9c96 2ebd bdc1 eabd fff8 893e c763 1bbd
00000380: 42a1 033d ef6f 0c3e 3ead ad3d e8f9 63bd
00000390: b8e0 70bb 8a91 7bbc 7b8a 743d d3fb ffbc
000003a0: e78e 9f3d 0a0e c2bd c076 6d3d ceae b1bd
000003b0: f5fa 4abd 0d7b 4ebd ba17 a4bd a17f 443d
000003c0: 9336 003d bbb5 f63c ecc8 243d 79f1 c63c
000003d0: 1150 4c3e 1d79 503d 8def 32bd ce1a bf3d
000003e0: 8497 6c3d 8628 83bc dfc6 4ebd 43b8 ecbc
000003f0: 9edd 553c 2931 c23d fdd0 613d bf02 4dbd

resource_repr_module.fc1.weight f4 [256, 8]
-0.16706635 0.055476032 0.20789331 0.24596412 0.025575392 -0.05837399 -0.31262648 0.14209978
0.0095371315 -0.11863054 0.27141225 0.17900021 -0.6035209 0.041684184 -0.2355385 -0.101002485
0.18876214 -0.24090573 -0.18246184 0.1555653 -0.64654917 0.031453274 -0.1981414 0.3784516
-0.3069253 -0.034878574 -0.28975743 0.26507184 0.27438945 -0.2721034 -0.10349758 -0.17532052
-0.21879186 0.14368959 -0.28139198 -0.005675473 -0.0040678824 -0.3408321 -0.043794483 -0.20208976
-0.12433784 0.21705754 0.039581038 0.25689098 0.41052577 -0.047876637 0.280689 0.18997909
-0.28763807 0.10934315 -0.044730637 -0.4756921 -0.84677577 0.021886297 0.01799155 0.27254826
0.20668203 -0.25272092 -0.29082185 -0.3278642 -0.6591895 -0.08993184 0.12347222 0.22928384
-0.3438459 0.0018595292 -0.058709055 0.07680996 -0.37618497 0.24405457 0.32176974 0.07836111
-0.27571774 0.15265188 0.369191 0.15457267 -0.34931114 -0.03651738 -0.09664617 0.3407627
-0.24836361 0.2667132 0.31346717 -0.105253585 0.3668681 -0.6022322 -0.7137299 -0.19364199
-0.35120934 0.24514359 0.14555322 -0.15380466 0.14087805 -0.24757811 -0.29009682 0.06207386
-0.2961823 -0.38402742 0.23589262 -0.06722085 -0.00035141522 0.33688098 0.303479 0.050613318
-0.0391556 -0.019544004 0.017079353 -0.05775596 0.59713227 0.15689869 0.14497088 -0.15443039
0.09706768 -0.35208532 0.17012236 0.30737117 0.120095946 -0.169814 -0.2341673 -0.33220646
-0.25847346 0.023771409 -0.20492664 -0.0034508791 0.30844158 0.1613754 0.117600806 -0.31912276
-0.29373255 0.25093517 -0.16758303 -0.24843553 -0.08584198 0.10664251 -0.42257023 -0.030099891
-0.29644236 0.15725914 0.32684126 0.047744337 -0.3397759 -0.2854639 -0.08004828 -0.017639827
-0.115019 -0.31795153 -0.069618866 0.31822103 -0.6093482 -0.14018385 -0.03390216 0.32162791
-0.2571986 -0.17464364 0.34318072 -0.368731 -0.50827885 -0.1811115 0.014487886 0.3191879
-0.047793902 0.20165272 0.122419335 -0.24658331 0.42174438 0.07380272 -0.3242038 0.08244578
-0.20453578 0.18574147 -0.26399493 -0.03232434 0.29425597 0.36085632 0.2077336 0.058802336
-0.055773642 0.11936104 0.35845613 0.24259625 -0.20794685 -0.31569567 -0.21688566 -0.28315613
0.17214097 0.14993477 0.36482123 -0.013571201 0.6093457 0.18586202 -0.21541244 0.004821545
0.09899717 -0.06587394 -0.043083392 -0.032279745 -0.7044863 0.10572756 0.18998076 0.06966662
-0.14988041 -0.047376376 -0.00038856338 -0.22521867 -0.34635723 0.06368092 -0.27164143 -0.273403
0.29451686 -0.27797282 -0.3375161 0.14556699 -0.93919176 -0.30595416 -0.09971621 0.08961797
-0.20279273 -0.28721184 0.27729395 0.24795385 0.36419725 -0.29696637 -0.28743228 -0.12516285
0.07884971 0.045246255 0.27814817 0.34739974 0.7960639 0.11495144 -0.17827605 0.045951907
-0.2065246 -0.06384622 -0.07415062 -0.06650511 -0.015887002 -0.38114706 -0.14455856 -0.050517302
-0.3067838 -0.18598372 0.26063725 0.008318073 -0.4553832 -0.11447901 0.1483172 0.3613748
-0.020882731 0.052739054 -0.18478775 0.12635767 0.19057459 0.22931309 0.15629184 0.1576457
00000000: 7113 2bbe d63a 633d fce1 543e 05de 7b3e
00000010: 7c83 d13c 9119 6fbd 9410 a0be 9b82 113e
00000020: a141 1c3c 92f4 f2bd 8cf6 8a3e d54b 373e
00000030: 5880 1abf 09bd 2a3d 0131 71be 64da cebd
00000040: dd4a 413e feaf 76be 47d7 3abe 834c 1f3e
00000050: 3f84 25bf 26d5 003d 94e5 4abe 68c4 c13e
00000060: 5025 9dbe d6dc 0ebd 165b 94be 7fb7 873e
00000070: c67c 8c3e 2351 8bbe 8af6 d3bd 3987 33be
00000080: f90a 60be 5d23 133e 9c12 90be 51f9 b9bb
00000090: df4b 85bb 8c81 aebe d861 33bd 9ef0 4ebe
000000a0: d6a4 febd 5544 5e3e ba1f 223d 3787 833e
000000b0: 6f30 d23e 4b1a 44bd 78b6 8f3e e189 423e
000000c0: 4c45 93be 4def df3d 7937 37bd ea8d f3be
000000d0: 4cc6 58bf e44a b33c 0463 933c 728b 8b3e
000000e0: 74a4 533e a364 81be 9ae6 94be d1dd a7be
000000f0: a5c0 28bf 2f2e b8bd 01df fc3d 62c9 6a3e
00000100: 920c b0be 72bb f33a e878 70bd 8a4e 9d3d
00000110: 519b c0be 71e9 793e 01bf a43e ca7b a03d
00000120: e02a 8dbe c650 1c3e 9a06 bd3e 4c48 1e3e
00000130: e9d8 b2be 4093 15bd 6dee c5bd 7378 ae3e
00000140: 0853 7ebe a28e 883e c57e a03e 318f d7bd
00000150: 23d6 bb3e e42b 1abf 01b7 36bf 164a 46be
00000160: b6d1 b3be ec06 7b3e e70b 153e f87e 1dbe
00000170: 5642 103e 1e85 7dbe 9287 94be 2941 7e3d
00000180: 35a5 97be 3e9f c4be d68d 713e 16ab 89bd
00000190: 273e b8b9 aa7b ac3e 9961 9b3e e94f 4f3d
000001a0: 9f61 20bd bf1a a0bc 00ea 8b3c 8391 6cbd
000001b0: a9dd 183f 0daa 203e 3f73 143e 0023 1ebe
000001c0: 6bcb c63d 8744 b4be 8e34 2e3e c15f 9d3e
000001d0: ddf4 f53d b9e3 2dbe 8dc9 6fbe f716 aabe
000001e0: a256 84be 42bc c23c 4ad8 51be 2528 62bb
000001f0: 0eec 9d3e 983f 253e b1d8 f03d 0f64 a3be
00000200: 1d64 96be 937a 803e e39a 2bbe e265 7ebe
00000210: eccd afbd 6367 da3d 205b d8be 0c94 f6bc
00000220: 4bc7 97be 8a08 213e bd57 a73e 918f 433d
00000230: 1bf7 adbe 5328 92be 5af0 a3bd 6681 90bc
00000240: 158f ebbd 8bca a2be 5694 8ebd deed a23e
00000250: 3efe 1bbf 5b8c 0fbe fedc 0abd 6aac a43e
00000260: 89af 83be c8d5 32be 62b5 af3e 4fca bcbe
00000270: 901e 02bf 4b75 39be 995e 6d3c 996c a33e
00000280: 8ac3 43bd 0d7e 4e3e fdb6 fa3d 5680 7cbe
00000290: e1ee d73e e125 973d 0afe a5be 55d9 a83d
000002a0: d471 51be 0333 3e3e 582a 87be 8766 04bd
000002b0: b8a8 963e 29c2 b83e 1eb8 543e b8da 703d
000002c0: e772 64bd 9073 f43d 9087 b73e 276b 783e
000002d0: 05f0 54be dda2 a1be 4617 5ebe d7f9 90be
000002e0: b945 303e 8088 193e d9c9 ba3e be59 5ebc
000002f0: 14fe 1b3f 9d52 3e3e 1495 5cbe 0dfe 9d3b
00000300: 07bf ca3d ebe8 86bd 3678 30bd c437 04bd
00000310: 3759 34bf b187 d83d 518a 423e 5fad 8e3d
00000320: 407a 19be bb0d 42bd 18b8 cbb9 b99f 66be
00000330: bc55 b1be 246b 823d 9614 8bbe 7afb 8bbe
00000340: eaca 963e 7452 8ebe e9ce acbe 830f 153e
00000350: df6e 70bf 06a6 9cbe 0338 ccbd a089 b73d
00000360: e6a8 4fbe 6e0d 93be 79f9 8d3e 9de7 7d3e
00000370: 1078 ba3e fa0b 98be 532a 93be b12a 00be
00000380: f57b a13d 2354 393d 7069 8e3e 61de b13e
00000390: d8ca 4b3f a96b eb3d ff8d 36be 1138 3c3d
000003a0: 2f7b 53be cfc1 82bd 48dc 97bd d533 88bd
000003b0: 7525 82bc b525 c3be 2907 14be 3beb 4ebd
000003c0: c412 9dbe 8472 3ebe 3f72 853e 8748 083c
000003d0: fd27 e9be f973 eabd 77e0 173e 1e06 b93e
000003e0: 4312 abbc e804 583d 0039 3dbe e863 013e
000003f0: fc25 433e 0dd1 6a3e f80a 203e e06d 213e

resource_repr_module.fc1.bias f4 [256]
0.06109367 0.19190942 0.26025897 0.075329445 0.0734284 -0.43683428 -0.0059700543 0.12094211
-0.31710085 -0.22085403 -0.21115285 0.34588176 -0.14528602 -0.08772299 -0.032598834 -0.11700987
0.02789005 0.26770476 0.33277145 0.02427298 0.058921296 -0.2609328 0.390509 -0.31248224
-0.13608398 0.24258779 0.10817273 0.32262263 -0.217979 0.15360448 -0.2515679 -0.2963573
0.33873332 -0.21769252 0.109625876 0.024862349 -0.25302818 -0.25486976 -0.14994864 -0.06784402
-0.029310377 -0.09835806 -0.039573453 -0.107766874 -0.069233745 -0.06857557 -0.13425191 0.12752588
0.09630836 0.21421658 -0.16764534 -0.26517424 0.03138704 -0.20835662 -0.12547055 -0.0845074
-0.076768614 0.004625777 0.2604263 -0.3111241 -0.13003181 0.22402354 -0.11153777 -0.022514421
-0.13937718 0.024500122 -0.34724337 -0.16626918 0.09879434 0.3935262 -0.2992525 -0.3617072
-0.33381873 0.19143134 0.09819777 0.27898005 -0.2512343 -0.30671826 -0.09156552 0.011722993
0.18545605 -0.25597325 -0.3159454 -0.0822612 -0.08831239 -0.06502193 0.20625271 0.2911025
-0.32690388 -0.32909778 -0.0063964194 -0.21346192 -0.1774772 -0.011608774 -0.340954 -0.09217948
-0.17820235 -0.2501145 0.14026873 0.048505038 -0.19762158 0.022750279 0.060294993 -0.32953644
-0.19382197 0.07092184 -0.40634048 0.014511035 0.21875516 0.046945583 -0.20775113 0.03241604
-0.1691631 -0.38167056 -0.14396831 0.022322215 0.036456067 -0.25786412 0.05312797 -0.38550234
-0.14501214 0.04946797 0.082300864 -0.15325733 0.20964594 0.24411036 0.30152884 -0.16834542
-0.33889318 -0.024327083 0.14556038 -0.15953319 0.22905856 -0.17043574 0.16375919 0.113382936
-0.0035577707 -0.33217812 0.1320965 -0.0249061 -0.0044114175 -0.10529537 0.10035003 -0.13199039
-0.08428381 -0.18292098 0.0154471425 0.08389532 -0.14229105 0.06464976 0.21207485 -0.24921189
0.03844969 0.08733868 -0.21725963 0.06337569 -0.03159301 -0.06895843 0.29102224 0.048640504
-0.060500007 -0.28262728 0.19226262 0.26329204 -0.015807342 -0.17303821 -0.16265099 -0.089930095
0.24073642 0.007355309 -0.09723414 0.19474168 0.053038344 0.0030313514 -0.28465393 0.108844325
0.07745783 0.01023576 0.03285958 -0.025571803 -0.14713123 -0.2782599 -0.0029702429 0.18299697
0.15509789 -0.047041316 -0.05889221 0.21554416 0.15246512 -0.28146133 -0.24510632 -0.11336853
-0.27673864 -0.010104242 -0.11019427 -0.13323629 -0.00043878803 -0.25211543 -0.18187949 0.003306798
0.17567591 -0.11103055 -0.034860943 0.2082477 0.111090146 0.28755683 -0.34763783 -0.07930767
-0.36841768 -0.19451876 0.13146295 -0.17025675 -0.029077442 0.284136 0.32316333 -0.13873966
-0.096327394 -0.10641906 0.047570497 0.1979268 0.14164878 -0.028672844 -0.260962 0.036154665
-0.15704507 0.0013682094 0.017033068 0.14406693 0.13526423 -0.3523127 -0.3167885 0.12227335
-0.09810216 -0.24021243 0.16103256 0.0245051 0.11297965 -0.30142075 0.07660679 0.07607041
0.21364234 0.0015490218 0.15556125 -0.10058678 -0.045330577 0.02624699 -0.013657033 0.17062269
-0.15979311 -0.12444996 -0.21058929 0.110107526 -0.26359656 -0.113332346 -0.1072005 -0.29386154
00000000: 5b3d 7a3d e783 443e aa40 853e 5346 9a3d
00000010: a161 963d bea8 dfbe 72a0 c3bb 7fb0 f73d
00000020: 0b5b a2be 8f27 62be 7438 58be 6a17 b13e
00000030: dcc5 14be 1ca8 b3bd 5b86 05bd dfa2 efbd
00000040: ad79 e43c 9910 893e 0561 aa3e 21d8 c63c
00000050: 7557 713d fc98 85be ccf0 c73e acfd 9fbe
00000060: 9959 0bbe ef68 783e aa89 dd3d cb2e a53e
00000070: e335 5fbe 7e4a 1d3e 82cd 80be 25bc 97be
00000080: 746e ad3e caea 5ebe 8883 e03d 20ac cb3c
00000090: e98c 81be 4a7e 82be 238c 19be cef1 8abd
000000a0: 511c f0bc f36f c9bd c617 22bd e1b4 dcbd
000000b0: 6cca 8dbd 5971 8cbd 5579 09be 2596 023e
000000c0: 513d c53d 975b 5b3e 38ab 2bbe ebc4 87be
000000d0: b28f 003d 705b 55be 5a7b 00be 3712 adbd
000000e0: dd38 9dbd d493 973b 9956 853e a84b 9fbe
000000f0: 0f27 05be 6d66 653e ea6d e4bd 2a70 b8bc
00000100: e4b8 0ebe 7bb4 c83c e2c9 b1be 7842 2abe
00000110: b054 ca3d 447c c93e a037 99be b031 b9be
00000120: 4aea aabe 9406 443e ea1b c93d 79d6 8e3e
00000130: c8a1 80be 2d0a 9dbe b486 bbbd cc11 403c
00000140: 31e8 3d3e ed0e 83be 98c3 a1be 8f78 a8bd
00000150: 20dd b4bd 382a 85bd e933 533e 630b 953e
00000160: f25f a7be 817f a8be 0e99 d1bb c395 5abe
00000170: 95bc 35be ba32 3ebc 8691 aebe 98c8 bcbd
00000180: ad7a 36be 020f 80be 9ba2 0f3e 38ad 463d
00000190: 505d 4abe cb5e ba3c e2f7 763d 00b9 a8be
000001a0: 4479 46be 783f 913d dc0b d0be b1bf 6d3c
000001b0: 5a01 603e 034a 403d b6bc 54be aec6 043d
000001c0: 1739 2dbe 536a c3be 6e6c 13be 14dd b63c
000001d0: f552 153d c406 84be b79c 593d 9060 c5be
000001e0: 107e 14be ed9e 4a3d 5b8d a83d 7def 1cbe
000001f0: 6dad 563e 11f8 793e fd61 9a3e be62 2cbe
00000200: 6883 adbe 9749 c7bc c80d 153e ab5c 23be
00000210: 548e 6a3e b586 2ebe 7db0 273e 5035 e83d
00000220: 7d29 69bb 4013 aabe 4e44 073e e107 ccbc
00000230: a78d 90bb 19a5 d7bd 5184 cd3d 7d28 07be
00000240: fd9c acbd a34f 3bbe 0316 7d3c 4fd1 ab3d
00000250: bfb4 11be 1867 843d 262a 593e 6731 7fbe
00000260: 6c7d 1d3d 9fde b23d 4f79 5ebe 1dcb 813d
00000270: ac67 01bd 143a 8dbd de00 953e 443b 473d
00000280: dbce 77bd 86b4 90be 7ee0 443e 37ce 863e
00000290: 667e 81bc ee30 31be fb8d 26be 452d b8bd
000002a0: 9c83 763e ce04 f13b b122 c7bd 5d6a 473e
000002b0: bc3e 593d a3a9 463b 29be 91be c6e9 de3d
000002c0: 36a2 9e3d e4b3 273c c497 063d f57b d1bc
000002d0: 92a9 16be 1578 8ebe 68a8 42bb 8f63 3b3e
000002e0: fbd1 1e3e 65ae 40bd f538 71bd 9cb7 5c3e
000002f0: d11f 1c3e b31b 90be 27fd 7abe c32d e8bd
00000300: b0b0 8dbe 438c 25bc 89ad e1bd 186f 08be
00000310: 220d e6b9 4615 81be 9e3e 3abe ddb6 583b
00000320: 63e4 333e fc63 e3bd 59ca 0ebd e33e 553e
00000330: 3b83 e33d a63a 933e 96fd b1be 0f6c a2bd
00000340: 3ea1 bcbe ed2f 47be 399e 063e c957 2ebe
00000350: d133 eebc 467a 913e aa75 a53e c511 0ebe
00000360: 4c47 c5bd 3cf2 d9bd 48d9 423d 53ad 4a3e
00000370: 610c 113e 50e3 eabc d09c 85be ea16 143d
00000380: 6cd0 20be 7d55 b33a ef88 8b3c 4886 133e
00000390: b582 0a3e 5562 b4be 1a32 a2be 736a fa3d
000003a0: c9e9 c8bd 3ffa 75be b8e5 243e ebbe c83c
000003b0: e061 e73d d253 9abe 05e4 9c3d ceca 9b3d
000003c0: 0fc5 5a3e 8c08 cb3a 734b 1f3e 7100 cebd
000003d0: 8eac 39bd ed03 d73c c0c1 5fbc b7b7 2e3e
000003e0: cea0 23be 9fdf febd b8a4 57be 0e80 e13d
000003f0: 21f6 86be ca1a e8bd f08b dbbd 0575 96be

resource_repr_module.fc2.weight f4 [256, 256]
-0.03496005 0.034948718 0.0045712586 -0.0071363747 -0.04089085 0.03736107 0.02176216 0.00376268
-0.03499361 0.015060871 0.04255136 -0.05252564 0.05011782 -0.031011423 -0.01784354 -0.008336333
-0.042610988 0.0067460476 -0.052231666 -0.030398529 -0.028839003 -0.065999165 -0.033952285 0.04901851
-0.041513845 0.04703865 -0.012539588 -0.041974504 0.051538423 0.018069997 0.0054360866 -0.038219992
0.011471312 0.030605927 0.003829817 0.042224396 -0.048507478 -0.05419177 0.004443692 -0.062327255
0.026974507 -0.004101788 0.05238434 -0.022030585 0.0328964 0.043410074 0.06080623 -0.0017341406
-0.034324363 -0.05396131 0.006986715 -0.04223122 0.018216599 -0.01981835 -0.022100873 -0.051665638
0.021687157 -0.056045286 0.0054181586 -0.032526843 0.009871867 0.0067503694 -0.031085186 0.050798737
0.0039742426 -0.025026496 -0.031484567 -0.0011684597 0.03424625 -0.047710843 0.041310307 0.035370126
-0.050643634 -0.042644866 -0.017117573 -0.066586316 0.05039494 0.058509145 -0.019979194 0.05549167
-0.035782814 0.034096323 0.015796632 -0.01491295 -0.023046233 -0.027752912 -0.034149166 -0.023292175
-0.03598459 0.017856065 0.007277209 0.041665122 0.014025576 0.020772638 -0.055067465 -0.036092117
0.02244002 -0.03105836 0.036038853 -0.056349814 0.0015869662 0.01332395 -0.036672894 0.03468226
0.047714606 -0.0421091 0.01790924 -0.05877032 -0.0022280354 -0.028566577 -0.04490523 -0.049261503
-0.042966455 0.04772048 -0.04945767 0.0075861677 -0.015765933 -0.054064065 0.017926292 0.010799086
-0.06919943 0.035649437 -0.02935949 -0.03890548 0.010493814 -0.040199924 -0.00852267 -0.013384998
0.052604295 -0.05199442 -0.039103862 0.033892006 0.014969649 0.020987282 0.013516128 0.034964368
-0.04002723 -0.033493306 -0.035576023 0.056230247 0.047702737 0.036147375 0.03724666 0.05862657
-0.024667667 -0.009951401 -0.046267413 0.023533668 -0.049822778 -0.049316145 0.040454756 -0.030414924
-0.06197044 -0.03405928 0.01971522 0.054495353 0.014583023 0.023170142 -0.024162782 0.020594938
0.030938275 0.029521506 0.022559546 0.018745296 0.024197804 -0.045757227 0.022576733 0.0020455196
-0.024233973 -0.05240853 -0.059950966 0.00025115584 0.0028908218 -0.05896074 0.054250084 0.029191816
0.016284406 0.020377798 0.02664768 0.025958342 0.0573133 -0.05429177 0.010733825 0.023318157
-0.017569238 -0.025933135 -0.03294698 0.051096458 0.015203208 0.021471592 0.028676605 0.058684826
-0.022208862 -0.034089044 -0.05228033 -0.06600101 -0.024612442 0.01486017 -0.004476083 0.028329713
0.04574814 -0.04443427 -0.020377377 -0.055230916 -0.05248701 0.0009566838 0.04578094 -0.012157742
0.04451206 -0.0357133 -0.06533815 0.029650765 -0.040147338 0.030858936 -0.01193717 0.045240454
-0.047684267 -0.04953381 -0.040562354 0.035133388 -0.03554 -0.049758013 0.054692827 -0.038164366
0.0246356 -0.011886294 -0.003918752 0.024632744 -0.008822626 -0.044310976 -0.021441573 -0.05247936
0.043409873 -0.02598929 0.0064733992 0.039929464 0.04197494 0.054018214 -8.2311766e-05 0.034564923
0.0026632382 0.05544841 -0.045387622 -0.034851544 0.031173624 0.0010256469 -0.041729536 -0.041816764
-0.044618748 -0.060129598 -0.058242105 0.00025946647 -0.02881446 -0.048981555 -0.02743016 0.02389472
00000000: 4532 0fbd 6326 0f3d 7fca 953b 40d8 e9bb
00000010: 2a7d 27bd ec07 193d 8f46 b23c 4c97 763b
00000020: 7655 0fbd dfc1 763c 564a 2e3d 2025 57bd
00000030: 5848 4d3d ab0b febc 9e2c 92bc 1d95 08bc
00000040: dc88 2ebd f30d dd3b dff0 55bd 5606 f9bc
00000050: c63f ecbc 922a 87bd 8d11 0bbd a2c7 483d
00000060: 6c0a 2abd 99ab 403d d872 4dbc 75ed 2bbd
00000070: f419 533d 8807 943c 3321 b23b 918c 1cbd
00000080: 2bf2 3b3c 48b9 fa3c abfd 7a3b 7df3 2c3d
00000090: c7af 46bd 30f8 5dbd 649c 913b dd4a 7fbd
000000a0: a4f9 dc3c 4b68 86bb f690 563d 7c79 b4bc
000000b0: 60be 063d c3ce 313d f40f 793d 1a4c e3ba
000000c0: b497 0cbd 8906 5dbd d0f0 e43b a5fa 2cbd
000000d0: fa3a 953c 185a a2bc e40c b5bc 599f 53bd
000000e0: 44a9 b13c be8f 65bd cf8a b13b de3a 05bd
000000f0: 9cbd 213c 3432 dd3b 5ca6 febc 5612 503d
00000100: 5d3a 823b 5e04 cdbc f6f5 00bd 0027 99ba
00000110: cc45 0c3d 726c 43bd ff34 293d 44e0 103d
00000120: b36f 4fbd 62ac 2ebd 273a 8cbc 685e 88bd
00000130: ed6a 4e3d 49a7 6f3d 68ab a3bc 3c4b 633d
00000140: 0091 12bd 96a8 0b3d f067 813c 7255 74bc
00000150: 74cb bcbc 135a e3bc ffdf 0bbd 3bcf bebc
00000160: 9464 13bd e246 923c a775 ee3b 0ca9 2a3d
00000170: 88cb 653c 612b aa3c 6c8e 61bd 54d5 13bd
00000180: 22d4 b73c 1a6e febc 7a9d 133d 10cf 66bd
00000190: c001 d03a b24c 5a3c 5136 16bd fc0e 0e3d
000001a0: 6470 433d 977a 2cbd 66b6 923c 26b9 70bd
000001b0: 3b04 12bb 7404 eabc 8cee 37bd 6ec6 49bd
000001c0: 98fd 2fbd 8d76 433d 2094 4abd 6395 f83b
000001d0: 8f27 81bc 4872 5dbd 29da 923c a6ee 303c
000001e0: 6eb8 8dbd 2505 123d 5083 f0bc 5a5b 1fbd
000001f0: 3fee 2b3c ada8 24bd aba2 0bbc c04c 5bbc
00000200: 9a77 573d 1af8 54bd 5f2b 20bd 58d2 0a3d
00000210: 4243 753c 85ed ab3c c072 5d3c cc36 0f3d
00000220: 98f3 23bd 4730 09bd 2ab8 11bd b051 663d
00000230: f263 433d 450f 143d f48f 183d 6a22 703d
00000240: d913 cabc 330b 23bc e682 3dbd aec9 c03c
00000250: f812 4cbd baff 49bd e3b3 253d b828 f9bc
00000260: b7d4 7dbd be81 0bbd d081 a13c 8536 5f3d
00000270: a2ed 6e3c 4fcf bd3c 07f1 c5bc b7b6 a83c
00000280: 4472 fd3c 16d7 f13c ccce b83c bc8f 993c
00000290: 793a c63c ee6b 3bbd d7f2 b83c 200e 063b
000002a0: 5386 c6bc 54aa 56bd 258f 75bd 91ad 8339
000002b0: f173 3d3b d180 71bd 5635 5e3d ad23 ef3c
000002c0: e066 853c 57ef a63c 3c4c da3c 97a6 d43c
000002d0: 5ac1 6a3d 0c61 5ebd eddc 2f3c b805 bf3c
000002e0: 5ded 8fbc ba71 d4bc 6af3 06bd 854a 513d
000002f0: e016 793c 31e5 af3c 33eb ea3c 805f 703d
00000300: 5cef b5bc f4a0 0bbd e623 56bd 8a2b 87bd
00000310: 08a0 c9bc 1278 733c 1bac 92bb b713 e83c
00000320: 6762 3b3d b600 36bd 75ee a6bc d039 62bd
00000330: 9efc 56bd f7c9 7a3a cc84 3b3d 4431 47bc
00000340: 4752 363d 1c48 12bd 02d0 85bd 29e6 f23c
00000350: 8971 24bd e1cb fc3c 1f94 43bc 0e4e 393d
00000360: 9450 43bd f7e3 4abd b624 26bd 07e8 0f3d
00000370: 6492 11bd 0fcf 4bbd 9605 603d 3d52 1cbd
00000380: 99d0 c93c bbbe 42bc e068 80bb 9cca c93c
00000390: c78c 10bc 6d7f 35bd 3da6 afbc 99f4 56bd
000003a0: 8dce 313d 7ee7 d4bc cf1e d43b 148d 233d
000003b0: eaed 2b3d 3442 5d3d cb9e acb8 f393 0d3d
000003c0: b989 2e3b df1d 633d 5fe8 39bd 7ec0 0ebd
000003d0: d45f ff3c 006f 863a 97ec 2abd 0e48 2bbd
000003e0: 26c2 36bd 744a 76bd 468f 6ebd 0009 8839
000003f0: 4d0c ecbc e2a0 48bd 37b5 e0bc dcbe c33c

resource_repr_module.fc2.bias f4 [256]
-0.04788138 -0.06671902 -0.05378303 -0.10983308 0.01957435 -0.007993884 -0.05736596 -0.033930965
-0.06068722 0.015783992 -0.042337775 0.011387263 -0.08620157 -0.047363807 -0.0518742 -0.039189566
-0.044800047 -0.08372316 -0.0073705367 -0.037200537 -0.0783199 -0.0583265 -0.00973942 -0.0156180365
-0.05452027 -0.008687094 -0.061290022 0.016574403 -0.013856737 -0.060404997 -0.021694332 0.0034245364
-0.0014632591 -0.05566853 -0.0017243151 0.03623017 -0.06256795 -0.05301815 -0.017899124 0.031831753
-0.039212156 -0.029914265 -0.022279264 -0.018071465 -0.031912502 -0.013522523 -0.014999483 -0.007949772
0.006942397 0.033506624 -0.021246891 -0.1070995 0.031537987 -0.0022209252 -0.09367457 -0.027724793
-0.014034847 -0.009085793 -0.09019002 0.053201173 -0.01958184 -0.04664364 -0.011664106 -0.05264333
0.040604174 -0.055776235 -0.03707377 0.0038816435 0.023506919 -0.029974477 -0.018826135 -0.018565493
-0.033392504 -0.007844928 0.01405243 0.011235619 -0.029165264 -0.035725173 -0.047130164 -0.011324437
0.04053536 0.0014720218 0.019021897 -0.0021052968 -0.042814568 -0.051050566 -0.042023756 -0.047097996
0.019310653 -0.041392833 0.013339507 -0.0009874183 0.01194247 -0.021900214 0.032150842 0.035487708
0.04001538 0.04136047 0.056595817 -0.021598788 -0.07493191 -0.035899032 -0.0095548695 0.01775749
-0.079810075 0.012019921 -0.0550197 0.013153215 -0.02034902 -0.07966936 -0.075038925 0.0012738954
-0.03654497 -0.015887365 0.008119135 -0.056670506 -0.062808454 -0.02272682 0.0015124964 -0.021821575
-0.016326621 -0.07523592 -0.037631404 -0.068772286 -0.050015066 0.03289892 -0.010189611 -0.046404365
-0.050468102 -0.06752162 -0.059697166 -0.024053842 0.010120457 -0.058770735 0.016513465 -0.046419
-0.029526088 0.031967606 0.029290844 -0.039280333 0.004023448 -0.036395587 -0.06001242 -0.062596604
-0.053359278 -0.04307883 -0.034852624 0.013301405 0.008774255 -0.019295614 -0.037621897 0.037599683
0.03980833 0.020322695 -0.03972477 -0.047239777 0.0072865807 0.018747572 -0.013524331 0.012042912
-0.072236806 -0.058994807 -0.0029196949 -0.026456658 0.040721532 -0.07349007 -0.044434838 -0.038861804
0.023426346 0.043964278 -0.067610174 -0.07580187 0.012558535 -0.061837822 0.024123041 -0.027061114
0.014834473 -0.0015399974 0.055302363 -0.031645205 0.020258738 -0.020790994 0.037580054 0.022840742
-0.06025622 -0.0038265837 0.022459852 -0.0061506666 -0.034975253 0.040862717 -0.0040322402 0.05506714
0.030458484 -0.05323509 -0.029932406 0.0075929463 -0.061293002 -0.015561431 0.0005031923 -0.061853956
0.011976953 0.0047084177 0.005944463 -0.009888061 0.026368262 0.007590519 0.0282518 -0.015434298
-0.00026422314 -0.0524418 0.0017484892 0.019680966 -0.06777622 -0.071519926 -0.053023797 -0.12004634
-0.008920941 0.007118659 -0.052121226 -0.040261265 -0.050843004 0.014488687 -0.07371445 -0.0015479891
-0.026552528 -0.0021764236 -0.045054607 -0.05665166 -0.021171218 -0.07258974 -0.020139147 -0.0679975
-0.06896819 0.034942914 0.0018631052 0.026513223 0.010170002 0.022203377 -0.018835498 0.026702074
0.018825276 -0.011272554 -0.031426504 -0.037191845 -0.06199364 -0.021394394 0.00034576867 -0.082685366
-0.051237274 0.038514372 0.011115603 0.08644708 -0.012701759 -0.03875486 0.027917301 0.01640817
00000000: 441f 44bd fba3 88bd 984b 5cbd 2af0 e0bd
00000010: 635a a03c c8f8 02bc 92f8 6abd 32fb 0abd
00000020: 2a93 78bd 6e4d 813c 606a 2dbd a591 3a3c
00000030: 738a b0bd 8d00 42bd 0b7a 54bd 3d85 20bd
00000040: 4180 37bd 0c77 abbd 8b84 f1bb 975f 18bd
00000050: 2f66 a0bd c5e7 6ebd 1792 1fbc cbe2 7fbc
00000060: a650 5fbd 5054 0ebc 3f0b 7bbd 0bc7 873c
00000070: 5e07 63bc 3b6b 77bd 50b8 b1bc 306e 603b
00000080: d4ca bfba af04 64bd 6a02 e2ba 1666 143d
00000090: a023 80bd 8f29 59bd 2fa1 92bc 0362 023d
000000a0: ed9c 20bd c30e f5bc 0183 b6bc 9c0a 94bc
000000b0: afb6 02bd 938d 5dbc 64c0 75bc c33f 02bc
000000c0: 0c7d e33b 3e3e 093d f60d aebc fc56 dbbd
000000d0: fa2d 013d f18c 11bb 74d8 bfbd 1b1f e3bc
000000e0: 6af2 65bc 94dc 14bc 8cb5 b8bd 79e9 593d
000000f0: 186a a0bc 670d 3fbd ce1a 3fbc 88a0 57bd
00000100: 9050 263d 9f75 64bd aada 17bd 2c63 7e3b
00000110: 9591 c03c 098d f5bc 4439 9abc a916 98bc
00000120: 94c6 08bd 0388 00bc 2a3c 663c 9a15 383c
00000130: feeb eebc 8f54 12bd 8f0b 41bd 228a 39bc
00000140: 6808 263d dbf0 c03a cfd3 9b3c 05f9 09bb
00000150: 545e 2fbd 661a 51bd 1a21 2cbd d4e9 40bd
00000160: 6031 9e3c 888b 29bd f38d 5a3c 436c 81ba
00000170: 5aaa 433c 1468 b3bc 9ab0 033d 8f5b 113d
00000180: 2be7 233d 9969 293d 04d1 673d f1ef b0bc
00000190: e775 99bd dd0a 13bd 078c 1cbc 2878 913c
000001a0: 7773 a3bd 34ef 443c 565c 61bd 9580 573c
000001b0: fdb2 a6bc b029 a3bd 02ae 99bd d6f8 a63a
000001c0: 2eb0 15bd 3826 82bc 1f06 053c 551f 68bd
000001d0: b8a1 80bd 992d babc f53e c63a 29c3 b2bc
000001e0: 68bf 85bc 4a15 9abd 6323 1abd 7cd8 8cbd
000001f0: 99dc 4cbd 05c1 063d 54f2 26bc 8112 3ebd
00000200: a4b7 4ebd c648 8abd 0485 74bd 900c c5bc
00000210: 46d0 253c 95b9 70bd 3f47 873c d921 3ebd
00000220: b2e0 f1bc 77f0 023d 5af3 ef3c 6ae4 20bd
00000230: 21d7 833b 8a13 15bd 95cf 75bd a632 80bd
00000240: 428f 5abd 6d73 30bd a0c1 0ebd 23ee 593c
00000250: e5c1 0f3c d611 9ebc 6b19 1abd 2002 1a3d
00000260: 0f0e 233d c87b a63c 71b6 22bd 7f7e 41bd
00000270: 45c4 ee3b 8294 993c 2895 5dbc a24f 453c
00000280: e4f0 93bd 8aa4 71bd 5a58 3fbb a2bb d8bc
00000290: 9fcb 263d f681 96bd 4e01 36bd 8e2d 1fbd
000002a0: 9ce8 bf3c e313 343d 3477 8abd 033e 9bbd
000002b0: 50c2 4d3c a849 7dbd af9d c53c 45af ddbc
000002c0: 4a0c 733c bdd9 c9ba bb84 623d 679e 01bd
000002d0: a7f5 a53c e051 aabc 8bed 193d 821c bb3c
000002e0: 3acf 76bd 6cc7 7abb b9fd b73c 888b c9bb
000002f0: 3642 0fbd aa5f 273d e220 84bb 158e 613d
00000300: 1284 f93c 0a0d 5abd ce34 f5bc 40ce f83b
00000310: 5f0e 7bbd 5ff5 7ebc aae8 033a 935a 7dbd
00000320: fb3a 443c 1249 9a3b c5c9 c23b 8901 22bc
00000330: 4102 d83c e3b9 f83b 5270 e73c 23e0 7cbc
00000340: 6e87 8ab9 36cd 56bd 902d e53a fa39 a13c
00000350: 42ce 8abd 0a79 92bd 7b2f 59bd dbda f5bd
00000360: 2329 12bc a443 e93b 117d 55bd ffe8 24bd
00000370: c140 50bd f561 6d3c 9af7 96bd e5e5 caba
00000380: b084 d9bc 54a2 0ebb 2e8b 38bd 920b 68bd
00000390: 436f adbc eea9 94bd dafa a4bc 4642 8bbd
000003a0: 323f 8dbd 4d20 0f3d 7033 f43a 4232 d93c
000003b0: 14a0 263c dbe3 b53c e74c 9abc 4fbe da3c
000003c0: 7737 9a3c 85b0 38bc 14b9 00bd 7a56 18bd
000003d0: 0bed 7dbd 4c43 afbc 4948 b539 f256 a9bd
000003e0: 2dde 51bd 3fc1 1d3d 381e 363c 2b0b b13d
000003f0: 0a1b 50bc 6bbd 1ebd d3b2 e43c 6d6a 863c

resource_repr_module.fc3.weight f4 [256, 256]
0.052501217 -0.03335425 -0.05408338 0.13963804 0.017777467 0.061521113 0.02961962 0.08111458
0.003513813 0.049551167 0.042493045 0.031508133 0.082774505 0.057946462 -0.05836632 -0.057158887
-0.031672403 0.018555207 -0.011048211 0.12173723 0.008690864 0.030473819 -0.0057165627 -0.23850523
0.06661694 -0.009957047 -0.023780517 0.025905263 -0.23570608 -0.03377148 0.10621659 -0.023981145
-0.026854178 -0.044222713 0.24777614 -0.019471506 -0.057979513 -0.042977683 0.020177027 -0.01738343
-0.06459303 -0.047868468 0.065263055 0.016579177 -0.0051511093 0.026389705 0.03981465 0.021464461
0.050876673 -0.045482732 0.041087702 -0.048879392 0.009660583 0.0122223655 -0.009245583 -0.012209657
-0.03688437 -0.18046755 0.023179816 0.067132495 -0.025149612 -0.18222627 -0.04103757 -0.058418397
-0.0011571681 0.053828903 0.0022839115 -0.19568938 0.012960537 0.016162975 0.019972855 -0.046238303
-0.040824004 -0.011816523 0.050161194 0.021032423 -0.041694373 0.3023914 0.0141642075 -0.035522796
0.012908278 0.008252811 -0.041626036 -0.042842668 0.14737232 0.006301021 -0.023099005 -0.054853033
-0.013629641 -0.038360663 0.005067738 0.0036948118 -0.0324386 0.012659673 -0.009492841 0.035172455
-0.00078797573 0.043140493 -0.023638861 -0.05162091 -0.047200896 0.019606166 0.06471605 0.0031871668
-0.0009399649 -0.04720132 -0.060959473 0.17261514 -0.059111092 -0.011520547 0.07725167 0.022596832
0.006825471 0.032629173 0.01666909 0.09976377 -0.012564376 0.009127226 0.038991705 0.0063465354
0.06335902 -0.011498884 -0.13505682 -0.031144843 0.0048204283 0.062597744 0.022113029 0.24634913
0.07982788 -0.007902924 -0.00990765 0.0046667457 0.016975962 -0.14646575 0.052474838 0.0016305726
0.004373599 -0.043500084 0.01879126 0.06121894 -0.03995988 -0.03442122 -0.0884696 0.077859975
-0.01589391 -0.0541841 0.08728263 -0.033599164 0.032428388 0.0317528 -0.044196766 0.0061003603
-0.02129875 0.052478053 -0.01952624 0.0015564058 -0.027034905 -0.0429586 -0.041965768 -0.02269629
-0.043484967 7.21319e-05 0.037041523 -0.000105541054 0.061002113 0.05227793 0.09723367 0.037366748
0.051504772 0.05873812 0.12332063 -0.03278455 0.026216023 0.02804163 0.14068577 -0.21796203
-0.021235572 -0.018208789 0.1627981 0.013555438 -0.0033040522 -0.02419282 -0.037443224 0.041336123
0.022863906 0.012016413 0.42109162 -0.03930258 -0.034783047 -0.014505024 -0.04541781 0.12814558
-0.0053779576 0.04505427 0.04231495 -0.015036959 -0.024120398 -0.056574408 0.022695309 -0.1535595
-0.034138553 -0.0199714 -0.048067443 0.45452833 -0.02048997 0.04633729 0.009955391 0.06813756
0.052261434 -0.03327549 -0.010525635 0.053842597 0.010597043 0.034020927 -0.048723325 0.031099737
0.061857663 0.024712663 0.015978107 -0.04824441 0.026692618 0.015329655 0.032773975 0.12731864
0.04257109 0.014332835 0.03360352 -0.046084028 -0.045498703 -0.041157614 -0.013045716 0.048957672
0.0648975 -0.032311875 0.001813609 0.043911893 0.027915832 0.008010977 0.16333948 0.05090707
0.101001546 0.03583022 0.05838985 -0.026529638 0.035603233 0.044606965 -0.0027009186 -0.043119535
0.3814784 -0.023715263 1.8063087e-05 0.10165548 -0.002703303 -0.053396776 -0.22362213 0.02825583
00000000: 840b 573d 779e 08bd 8986 5dbd 46fd 0e3e
00000010: 0da2 913c 90fd 7b3d d8a4 f23c 671f a63d
00000020: 0048 663b 2af6 4a3d 300d 2e3d ac0e 013d
00000030: ae85 a93d 4559 6d3d 8611 6fbd 701f 6abd
00000040: ecba 01bd 1701 983c 8e03 35bc 5e51 f93d
00000050: 2064 0e3c 3ba4 f93c 0152 bbbb b73a 74be
00000060: 766e 883d e222 23bc 5ccf c2bc 4637 d43c
00000070: ef5c 71be f753 0abd 1588 d93d 1b74 c4bc
00000080: 4bfd dbbc e022 35bd 07b9 7d3e b582 9fbc
00000090: ed7b 6dbd 5e09 30bd 4b4a a53c b267 8ebc
000000a0: 5a49 84bd ba11 44bd a3a8 853d 0ed1 873c
000000b0: a3ca a8bb 392f d83c b014 233d 3dd6 af3c
000000c0: 0f64 503d 1a4c 3abd 944b 283d c235 48bd
000000d0: 6c47 1e3c 5140 483c c97a 17bc 030b 48bc
000000e0: 1114 17bd 7ccc 38be 99e3 bd3c c37c 893d
000000f0: 8f06 cebc 8699 3abe 0317 28bd 2148 6fbd
00000100: 1eac 97ba b27b 5c3d adad 153b cc62 48be
00000110: 6f58 543c 3768 843c 1d9e a33c 6064 3dbd
00000120: 1237 27bd 179a 41bc d375 4d3d 304c ac3c
00000130: b8c7 2abd 0cd3 9a3e fe10 683c 5a80 11bd
00000140: 3e7d 533c cc36 073c 1080 2abd cb7b 2fbd
00000150: c5e8 163e cc78 ce3b 203a bdbc 93ad 60bd
00000160: dc4e 5fbc 1220 1dbd 440f a63b a824 723b
00000170: 56de 04bd 846a 4f3c dc87 1bbc fe10 103d
00000180: 2890 4eba 16b4 303d 49a6 c1bc 7370 53bd
00000190: ba55 41bd 1c9d a03c d989 843d c9df 503b
000001a0: fa67 76ba 2c56 41bd a4b0 79bd 06c2 303e
000001b0: 791e 72bd adc0 3cbc 2036 9e3d fe1c b93c
000001c0: 33a8 df3b 2ba6 053d 9e8d 883c f350 cc3d
000001d0: d0da 4dbc 5c8a 153c c4b5 1f3d 99f6 cf3b
000001e0: 60c2 813d d165 3cbc 564c 0abe 7823 ffbc
000001f0: aff4 9d3b 3f33 803d 6226 b53c f242 7c3e
00000200: cd7c a33d 447b 01bc b253 22bc 80eb 983b
00000210: 2c11 8b3c 1efb 15be dbef 563d f0b8 d53a
00000220: 6850 8f3b 252d 32bd 21f0 993c b6c0 7a3d
00000230: f9ac 23bd 44fd 0cbd 8d2f b5bd 0d75 9f3d
00000240: f233 82bc 26f0 5dbd 3cc1 b23d 479f 09bd
00000250: a1d3 043d 390f 023d ab07 35bd 88e5 c73b
00000260: b77a aebc 3af3 563d 7ef5 9fbc 5000 cc3a
00000270: 4e78 ddbc 5bf5 2fbd 4ce4 2bbd 92ed b9bc
00000280: 4b1d 32bd 8545 9738 dab8 173d ec55 ddb8
00000290: 5add 793d 6221 563d 7222 c73d e00d 193d
000002a0: abf6 523d 6297 703d 878f fc3d 1849 06bd
000002b0: fcc2 d63c 8fb7 e53c ee0f 103e 7031 5fbe
000002c0: 39f6 adbc 992a 95bc 8cb4 263e a117 5e3c
000002d0: cc88 58bb 0530 c6bc 115e 19bd 1150 293d
000002e0: 164d bb3c 7de0 443c 5299 d73e befb 20bd
000002f0: ab78 0ebd 7ba6 6dbc 0708 3abd 9838 033e
00000300: 9439 b0bb d48a 383d 7152 2d3d 945d 76bc
00000310: 2498 c5bc 91ba 67bd 83eb b93c b43e 1dbe
00000320: ded4 0bbd 109b a3bc 5ee2 44bd f0b7 e83e
00000330: 95da a7bc 2ccc 3d3d f01b 233c b48b 8b3d
00000340: 1610 563d e14b 08bd b773 2cbc 0e8a 5c3d
00000350: 389f 2d3c 8759 0b3d 1c92 47bd e0c4 fe3c
00000360: 765e 7d3d 3672 ca3c 85e4 823c ee9b 45bd
00000370: 7aaa da3c 3c29 7b3c 013e 063d d15f 023e
00000380: 065f 2e3d 44d4 6a3c d8a3 093d 9bc2 3cbd
00000390: d95c 3abd e394 28bd b3bd 55bc d787 483d
000003a0: fbe8 843d 7559 04bd 9fb6 ed3a f5dc 333d
000003b0: beaf e43c 7940 033c 7742 273e ef83 503d
000003c0: e6d9 ce3d b5c2 123d 322a 6f3d af54 d9bc
000003d0: b2d4 113d cbb5 363d e501 31bb 1c9e 30bd
000003e0: 2351 c33e 8346 c2bc 2f86 9737 c030 d03d
000003f0: e629 31bb 94b6 5abd 33fd 64be c578 e73c
